data/weight.npy (npy, 2440 bytes, 1 tensors)

array f8 [289, 1]
21.0177083333332 -0.2031364824233003 0.33449432735522083 -0.5007019396356712 -0.047353406241719714 0.20276568643052048 -0.14588849251655162 -0.04619594450215056
1.2558974599454489 0.4818116292754444 0.3318182223039042 0.16531667004606185 -0.144805033466845 0.33588153960785766 0.3038456488479281 -0.06641099167395967
-1.0894631680020548 0.8862180936212449 -0.3709625009963366 -0.05817437987737656 -0.0977588693760526 -0.12677274462823582 -0.5379231120243311 0.10554663985926419
1.4439472046002626 0.23606544224730155 0.31607447002090977 0.09268755225924565 -0.2707798978369558 -0.08914120287080124 0.13222871609808198 0.2314400235070274
-0.324033990846296 0.003405169916587236 0.2359719135603771 -0.0181621685769313 -0.6728867528964847 0.26101969413528375 0.3280828230769204 -0.49288190783958125
-0.6250424188839896 -0.4200092195064899 -0.005276614173636386 -0.49058389543784986 0.022627409212298052 -0.3328503732306654 -0.18441458781407133 -0.4034825198401823
0.3017547187527124 -0.33711995274814754 0.1939639147158483 0.6405662705939033 0.6023034268697597 0.08218672944085131 -0.07703313595891001 0.5355922030614749
0.48926091741316136 -0.09513402657681139 -0.3534946241373689 -0.14590449858318363 -0.036966282533862194 0.26749391543777695 -1.453861123025073 -0.4735231774728197
3.0776922209399835 -0.05471822486166107 -0.716604862874239 1.052884732117375 0.1630896039201863 -0.8513970951035414 0.6055125914497059 0.5595782532345048
0.311790138315784 -0.35766557412686323 2.3605516121481505 -2.76364498413822 0.1523970537402434 5.820299476649439 -6.759915178714065 0.5862378773852731
14.142402321286411 -0.2511727011855191 -0.0798435266729357 0.132124197669851 -0.20028527584900427 0.11046550504583515 0.11775875226388546 -0.2526790775282462
-0.40715246904084235 1.5816470175443231 0.051639469690782966 -3.198988405909428 -0.9163469128877091 1.978369505976936 -1.2913458977182033 0.2230660461147986
1.6081314420453605 0.24242252571258788 -0.21192421893917357 -0.2432239250721799 0.06624957078029 0.6165488263605271 -0.84858507825323 0.0030318811936846874
1.166861460627096 0.32959616326534585 -0.0845815707530199 -0.5563192121812544 -0.2015315181353562 0.21751142788091946 0.5108616624543355 -0.12446305947588054
-1.0748957545649664 0.9415163421778374 0.3712927323692232 -0.5288750262854147 -0.9472060427927409 0.22168972387319605 0.3921248445414544 -0.052613854267629934
0.18190306750029017 -0.49870934420728624 0.004390610778926518 -0.32065631642858555 0.747031695201125 -0.16513802076406991 0.8900243639653193 0.6511320465573502
1.1000516062698094 -0.9492123659835906 0.1165216858459707 -0.3233428872533963 0.2697425979435217 -0.3953201563865637 -0.05429458988730831 -0.21474859638667015
-0.4833847495833494 0.34335365995452977 0.14608944802259968 0.25989915136627556 0.2179182946551009 0.1537178615833325 -0.05944309626700081 -0.2423764166267183
-0.09730629838990983 -0.7751764128668542 1.26217059005946 -1.5142955459877268 0.24192345372847868 1.693067244797746 -0.5005898739953226 -3.467785278782605
1.9879428934623768 -0.4291826077452597 -0.24152446427199095 -0.1803886280247734 0.19644322214952314 -0.2801543635202795 -0.6577080148421653 0.16579054595168224
1.8694735949644365 -0.7730424907529453 0.27972056260356404 0.09567294334253297 0.1959606346771271 0.1110418297324127 0.2789863399480262 -0.192685247810582
-0.9361856625550045 0.20839563449376516 -0.38942212477051485 0.24138767999762184 0.4830006727332497 -0.271897898396629 0.051201897925224095 -0.030436502568915388
-0.2986711786668909 0.15899256427153902 0.23479780592726107 -0.6541265052390326 0.4235192552468812 -0.5557190767348548 -0.32787270448031497 0.02580770571538305
0.3472374046011041 0.34516749070000363 0.16353459516750668 -0.9580498749139822 -0.28561203520246703 -0.1416268509298108 -0.4748861956735888 -1.150727872369736
0.5677595121983984 -0.2902443016894281 -0.5406944964413033 0.9999608294531842 -0.04980833276278549 0.5365191280636068 0.3748295152382079 1.1455345813358604
0.05926850144095957 0.05301656572631686 0.2748938513680639 -0.23350772136583559 0.13888201683461684 -0.5553180205741979 0.6808112121364144 0.1535716901742546
-0.9909645906599285 0.26499478200320276 0.156195613011938 -0.055433277526246244 -0.6135121425609624 0.10816960864481226 0.4680187759770188 -0.9999411651176423
0.7838013359598489 -0.32416497210816275 0.7580456468463863 -0.47153455878442957 -0.3465656112346331 1.770512370769073 -2.27806580677015 0.184962100547818
1.3196521766263822 0.22993736377626453 0.02154229466337178 -0.14135854518511456 0.07047753706223371 0.050619351149427345 -0.0010308782067278018 0.18367582314576666
0.31717902600376896 -1.1212326861834212 0.34660606525534376 1.606253127210264 0.3988161405529854 -0.15828472377436592 -0.2794141359774432 -1.072058196345805
-0.21116618754483166 -0.013679223467219892 0.12187247529422615 0.09403219826558266 -0.12002903909724948 -0.42947192201491036 0.5419800701401557 0.1417158030225173
-0.7736628742147953 -0.8177082645447167 0.21042126642928574 -0.12458491747193573 -0.0012627289616422067 0.26595975048382575 -0.41922918582448065 -0.374891919417614
00000000: 6388 8888 8804 3540 84f7 5052 6000 cabf
00000010: 550b 2ce5 5a68 d53f 5bed f812 c005 e0bf
00000020: 9424 53a6 b43e a8bf 772b fcdb 39f4 c93f
00000030: 8a54 1c60 79ac c2bf 2c6b b0ad fea6 a7bf
00000040: d485 59ef 2718 f43f 3c83 a471 00d6 de3f
00000050: adc6 407f 823c d53f 3b6d aabd 1829 c53f
00000060: fba4 84a9 f888 c2bf 4189 fc48 157f d53f
00000070: 2e5c 3505 3572 d33f 5ea7 558d 4f00 b1bf
00000080: fe3e 4cee 706e f1bf 3c41 270c e65b ec3f
00000090: a395 7480 d9bd d7bf d8aa 1346 08c9 adbf
000000a0: 7834 ddaa b906 b9bf 4fe9 19dc 163a c0bf
000000b0: 8606 bd87 aa36 e1bf 62f2 65c6 1a05 bb3f
000000c0: 3c8a 4e62 681a f73f f57e 1575 6437 ce3f
000000d0: 21c8 f569 903a d43f e122 b315 5fba b73f
000000e0: bcee 6735 7554 d1bf a462 0e37 f5d1 b6bf
000000f0: c9dd 9ddd deec c03f 1b5d f9a1 d39f cd3f
00000100: 868a 5e10 f9bc d4bf ffe6 baad 28e5 6b3f
00000110: 0a18 c2e1 5334 ce3f fcda 3f80 1a99 92bf
00000120: df43 b3cc 4988 e5bf e311 7bf2 8bb4 d03f
00000130: 9ca9 df18 4fff d43f 7582 bd8e 608b dfbf
00000140: e205 77f5 5800 e4bf 8320 7359 6ee1 dabf
00000150: b536 f354 ee9c 75bf ec63 b6fe b965 dfbf
00000160: 4f78 3dba a32b 973f ad2c dfa6 6b4d d5bf
00000170: 7a8b c8af e59a c7bf 0729 ce58 a8d2 d9bf
00000180: 9238 1d06 f34f d33f 9278 f890 5f93 d5bf
00000190: 8983 273f cfd3 c83f 56e3 e3d5 847f e43f
000001a0: 3d94 15d6 1146 e33f 9c18 1d83 300a b53f
000001b0: fede a68f 71b8 b3bf 3388 8442 9223 e13f
000001c0: f207 e005 0d50 df3f ea5a e21c b45a b8bf
000001d0: 00d6 7eea a79f d6bf c784 e0a4 ffac c2bf
000001e0: c844 139d 3eed a2bf 9dca abcc 9e1e d13f
000001f0: aa18 85e1 0343 f7bf 7033 4928 344e debf
00000200: 08ba 6019 1d9f 0840 fa50 8df4 0604 acbf
00000210: a861 4652 6dee e6bf f76d 2ea9 9dd8 f03f
00000220: 46d0 93c1 1ee0 c43f b021 ec1e a53e ebbf
00000230: 5ef7 32f1 5b60 e33f 7a3d 26a7 10e8 e13f
00000240: e105 d29f 5ef4 d33f 8fea f125 fee3 d6bf
00000250: 3192 35e2 68e2 0240 5606 c5e6 f11b 06c0
00000260: cd19 e924 bf81 c33f 818a 0496 fc47 1740
00000270: 5e3e 6134 270a 1bc0 857a e1ef 75c2 e23f
00000280: 6899 01f5 e848 2c40 a358 4faa 3613 d0bf
00000290: 3889 db17 a070 b4bf b649 001a 72e9 c03f
000002a0: e526 d2aa f2a2 c9bf 4d0b 82a3 7747 bc3f
000002b0: 1289 ca05 7025 be3f 4981 97dd e42b d0bf
000002c0: 4c07 c13a c90e dabf 6eb3 621a 6d4e f93f
000002d0: 8667 0213 7d70 aa3f 3650 bd3b 8797 09c0
000002e0: ae95 d4c2 b652 edbf a131 79c8 66a7 ff3f
000002f0: 0760 e850 5aa9 f4bf 879e 749e 6d8d cc3f
00000300: f810 f408 e8ba f93f 8ae8 df89 b307 cf3f
00000310: ec7b c932 5520 cbbf 1717 e529 f621 cfbf
00000320: 1619 e05b bbf5 b03f 7561 b39a c4ba e33f
00000330: 4414 dfe4 9b27 ebbf f2bb 4fd2 50d6 683f
00000340: deb2 45ec 76ab f23f b326 8781 1a18 d53f
00000350: fb80 3a48 23a7 b5bf 228f cef2 5dcd e1bf
00000360: 4496 c0e7 c8cb c9bf ab9d a01a 6ad7 cb3f
00000370: a3b0 a08e fa58 e03f 784e 02a2 cfdc bfbf
00000380: cf73 07e4 c532 f1bf 1ab5 49e1 e620 ee3f
00000390: bc2b b197 42c3 d73f d624 b251 8bec e0bf
000003a0: ecc9 0b0c 834f eebf cf83 f230 5460 cc3f
000003b0: df4b d0cd 9218 d93f f8bd cafe 33f0 aabf
000003c0: 8858 fa86 9948 c73f 1b1d e598 daea dfbf
000003d0: 5a7e 479b e3fb 713f 3743 1412 a285 d4bf
000003e0: 51db 7e03 afe7 e73f 3401 411f 3e23 c5bf
000003f0: d5f9 fb5f 147b ec3f 7eec aadf 12d6 e43f
00000400: 2575 8db6 cf99 f13f 3b77 9b9c f25f eebf
00000410: fab4 fb7d 5dd4 bd3f 8071 895d a6b1 d4bf
00000420: 275a 2075 7643 d13f 3a50 c8e9 ec4c d9bf
00000430: 73d9 d41f 80cc abbf 06dc 2bcb e17c cbbf
00000440: e41e b696 c6ef debf f1dc 1da1 81f9 d53f
00000450: eb1c c61c 0fb3 c23f 6b15 d80c 30a2 d03f
00000460: 3333 5f26 bfe4 cb3f 2ede 27e2 06ad c33f
00000470: ac26 e154 536f aebf e5e0 5dbf 3006 cfbf
00000480: 038c 47c9 10e9 b8bf 7599 bcc3 3ece e8bf
00000490: 5774 e4c9 d931 f43f 98ee 67f7 8d3a f8bf
000004a0: 8018 f304 59f7 ce3f c15c e5ad cd16 fb3f
000004b0: f598 300e d504 e0bf 4c5f 4f35 06be 0bc0
000004c0: cac8 1b35 9dce ff3f e5c8 1154 ba77 dbbf
000004d0: 29b6 9d0d 46ea cebf 24e6 f77c f916 c7bf
000004e0: a097 532f 0d25 c93f d5ae 4991 0cee d1bf
000004f0: c90d c2ad f10b e5bf 5a9a 6ce6 9f38 c53f
00000500: 92b9 f124 5de9 fd3f 1979 069b c3bc e8bf
00000510: 72aa 1913 f1e6 d13f 61ab c4a2 057e b83f
00000520: dcee 9ef2 3c15 c93f 7e4f 30c3 3c6d bc3f
00000530: 75e1 8685 e9da d13f 4651 e202 e9a9 c8bf
00000540: fe0c 75a2 3bf5 edbf 77d3 6349 b5ac ca3f
00000550: b69a 8ec6 4aec d8bf f2a0 9f9f cae5 ce3f
00000560: a975 55a7 7be9 de3f ddbc 5d71 c666 d1bf
00000570: adf7 299a 2237 aa3f 1f6d 8d1c bf2a 9fbf
00000580: d373 28b8 6d1d d3bf 763d ed4b de59 c43f
00000590: 78a8 d0c0 da0d ce3f 7059 6eb5 9aee e4bf
000005a0: 91be a081 f01a db3f 50dd 8a5f 73c8 e1bf
000005b0: 1d9e bfcb ddfb d4bf a223 21d0 556d 9a3f
000005c0: 1a6b 2d3c 2339 d63f c6ba 0c63 3917 d63f
000005d0: 4028 019d b3ee c43f 8128 1636 58a8 eebf
000005e0: 5e78 a2b3 7747 d2bf 0650 7d22 d420 c2bf
000005f0: dc5a ef11 8964 debf 63c7 26a1 6169 f2bf
00000600: 3352 1cff 152b e23f 19d0 e6d5 5c93 d2bf
00000610: 77f6 6a8b 5e4d e1bf e909 79da adff ef3f
00000620: 4da3 9150 7a80 a9bf a6c5 9629 2a2b e13f
00000630: 4383 61ef 34fd d73f a664 b411 1c54 f23f
00000640: 2763 bee6 7058 ae3f 01ac e1bf fc24 ab3f
00000650: 14d4 5f61 dc97 d13f 769b 50bd 94e3 cdbf
00000660: 5b52 27cc e2c6 c13f 3edc 274c 2ac5 e1bf
00000670: 5708 5c98 34c9 e53f 32e7 71b5 3ca8 c33f
00000680: 041c 8c5f fbb5 efbf 371f 94ac acf5 d03f
00000690: f11c d5c4 37fe c33f fcae 2b24 c061 acbf
000006a0: 72f1 7f37 e4a1 e3bf 4ef3 8ce3 00b1 bb3f
000006b0: 460e 2f06 05f4 dd3f 5357 439d 84ff efbf
000006c0: f146 108a e614 e93f e4a6 6d70 1ebf d4bf
000006d0: 9892 c2f1 e841 e83f 316d 3a49 9f2d debf
000006e0: a7f1 8a87 212e d6bf 93dd 99c7 0454 fc3f
000006f0: 8eb5 d190 7a39 02c0 8b19 6d8e d6ac c73f
00000700: d749 cb99 4b1d f53f d914 c668 966e cd3f
00000710: a56a 3dec 2e0f 963f 2b44 4a6c 0918 c2bf
00000720: a1f0 c8dc d00a b23f 298b 7693 c7ea a93f
00000730: c68e c70b d1e3 50bf 9f0c bd7a b082 c73f
00000740: db73 ea41 a94c d43f 0cd3 65af 91f0 f1bf
00000750: 007c b734 cb2e d63f f773 a77a 36b3 f93f
00000760: 52b0 3222 3486 d93f 229d 0880 ac42 c4bf
00000770: b90b 04d4 ebe1 d1bf 756c cb7e 2627 f1bf
00000780: c155 c35e 7e07 cbbf a03c 694b da03 8cbf
00000790: 4ed8 abd7 0833 bf3f ab58 5280 7e12 b83f
000007a0: b734 7e1d 39ba bebf e4ac e6cc 777c dbbf
000007b0: 81be 8a96 e657 e13f 7c6f a751 be23 c23f
000007c0: 9638 dca4 d8c1 e8bf 626e bc85 aa2a eabf
000007d0: f92c d984 15ef ca3f 1ce8 1d12 cce4 bfbf
000007e0: 1a87 03e6 44b0 54bf af57 980b 7c05 d13f
000007f0: 3e45 a9a6 a6d4 dabf 82bb 5bad 3afe d7bf
